src/model.onnx (onnx, 614921 bytes, 8 tensors)

0.weight f4 [15, 3, 5]
000000 0b 51 d9 bd 72 d6 42 3c 80 78 4c be b1 03 8e be
       -0.10611161 0.011891948 -0.19967842 -0.2773719
000010 b0 b6 8d bd 34 20 63 bd 0e d6 f9 3d 37 fe 80 bd
       -0.069196105 -0.055450633 0.12199031 -0.06298488
000020 95 cc 39 be 53 6a 82 3e c9 08 51 be 20 5a 76 be
       -0.18144448 0.25471744 -0.20413508 -0.24057817
000030 4d 91 5b 3d d3 d1 f3 3d 56 26 27 3e e5 f7 93 3d
       0.053605366 0.11905255 0.16323218 0.072250165
000040 66 c0 f9 bd 63 55 2f be 7c 88 2d 3b 80 49 98 be
       -0.121949 -0.17122416 0.0026479056 -0.29743576
000050 69 30 4a bc f7 38 a8 bb e8 6d 7a be b8 42 07 be
       -0.012340643 -0.005133744 -0.24455988 -0.13209045
000060 40 d3 7c b9 1f 0b f7 3d 73 06 a3 bb 3c f5 9c be
       -0.0002411129 0.12062668 -0.004975134 -0.3065585
000070 d5 ab 39 3e f0 79 ba 3d a3 d1 48 3e 72 bb 31 3e
       0.18131955 0.09105289 0.1961122 0.17356661
000080 39 96 e6 3d 6a 27 d9 3d 96 3b 19 3e 4a bd fb 3c
       0.112591214 0.10603221 0.14964136 0.030729908
000090 2e b4 6d 3e 87 f1 3d 3e f5 32 98 3c ef 79 72 3e
       0.23213264 0.18549167 0.018578986 0.23679326
0000a0 a6 9a 58 3e 17 21 8c bd 85 7f 5d 3e 4c 73 30 3d
       0.21152744 -0.06842249 0.21630676 0.043078706
0000b0 a9 43 19 3d e0 76 16 be 2c ca 41 3e fe 0b 37 be
       0.03741804 -0.14693785 0.18924779 -0.17875668
0000c0 2c 19 87 3b 4e 75 a1 be ae 93 ca bd ef 05 41 be
       0.004122874 -0.3153481 -0.09891449 -0.1884992
0000d0 01 76 b7 3c 6c 49 0d be dd 08 06 be 2a 8a a7 39
       0.022395136 -0.1379754 -0.13089319 0.00031955662
0000e0 2a 79 01 3e 5f a1 7c be 07 e4 42 be d1 32 01 3e
       0.12643877 -0.24670933 -0.19032298 0.12617041
0000f0 fd 8f 00 be ea eb f4 bd 20 41 1a be aa f4 8d be
       -0.12554927 -0.119590595 -0.15063906 -0.27725726
000100 51 4b e2 3d f9 ff bf 3d 97 d0 03 be 17 33 26 bd
       0.11049522 0.09374995 -0.1287254 -0.040576067
000110 d2 3b 9a 3c cf 10 28 3e 6e 96 3c be 65 1f d7 3d
       0.018827353 0.16412662 -0.1841676 0.10504035
000120 7b bc b2 3c 20 0d 84 3d 45 9f 49 be fa e7 4c 3e
       0.02181839 0.06447816 -0.19689663 0.20010367
000130 25 36 86 be 49 9c 00 3d db cd ba 3d 7e d2 32 3e
       -0.26213184 0.031399045 0.09121295 0.17463109
000140 24 7c 5c 3e 1a d2 5d bd 6b b5 10 be cc a6 aa bc
       0.21531731 -0.054155447 -0.14131705 -0.020831488
000150 7d 6c 97 ba 43 3d 47 3e 86 f1 8a bd 80 ac 47 3e
       -0.0011552718 0.19456963 -0.06784348 0.19499397
000160 0a 00 84 3e 66 ca 72 3c 5f 81 12 be be 26 73 3e
       0.2578128 0.014818763 -0.14307164 0.23745248
000170 51 65 de 3c a2 5f 73 3e a8 df d5 3d 00 75 69 3e
       0.02714792 0.2376695 0.1044305 0.22798538
000180 a3 f1 f2 bd ce 1f 3b 3d 39 7e 56 be b7 5d fe 3d
       -0.11862495 0.04568463 -0.20946588 0.124202184
000190 d6 ff 59 bd 7a 39 28 bd 45 b3 74 be ad 52 ce 3b
       -0.0532225 -0.04107044 -0.23896511 0.006296477
0001a0 83 cc 0e bd 75 fc 95 bd 52 61 81 bd 22 2d 76 be
       -0.034863006 -0.07323543 -0.063173905 -0.24040654
0001b0 81 70 79 bd 57 f2 96 3d 7e 46 5b be b6 9d cf bc
       -0.060898308 0.073704414 -0.2141361 -0.025343757
0001c0 34 4b 4c 3e f2 67 88 3c d0 8f 27 be 9d 95 e4 3d
       0.19950563 0.016651127 -0.16363454 0.11161349
0001d0 e5 bb ce bc 8e 49 80 3e d1 ed 73 3e 79 d3 45 be
       -0.02523608 0.25056118 0.23821189 -0.19318952
0001e0 98 75 2f 3d ae da f2 bd 22 2f 5f 3e c2 ee b5 3d
       0.042836756 -0.11858116 0.21795323 0.0888343
0001f0 3e 62 ee bd d6 60 22 3d 24 58 2f be a4 b1 45 3e
       -0.11639832 0.03964313 -0.17123467 0.19306046
000200 a7 e5 12 bd b8 21 17 3e 5a 83 61 be 6a 7e 66 bd
       -0.035863545 0.14758956 -0.22022763 -0.0562729
000210 da 0b 3b be a3 e6 97 3d 2e b4 4e be 77 f1 f4 bd
       -0.1826624 0.07417037 -0.2018592 -0.11960118
000220 6b 4c 01 be b2 25 8e bd 61 25 64 3e 74 1d ba bd
       -0.12626807 -0.069407836 0.22279884 -0.09087649
000230 cc 6c 13 be 27 27 4c bc 6f 7d f3 3d 6d 87 b6 3d
       -0.14396971 -0.0124605065 0.11889159 0.08912549
000240 66 c2 af bd 18 7f ee 3d 97 f6 7a be b3 a6 f8 bc
       -0.085820004 0.11645335 -0.24508129 -0.030352926
000250 1e ef 51 3e 2f 58 43 3e c0 c0 a9 bb 48 32 5a 3e
       0.20501372 0.19076608 -0.0051804483 0.21308243
000260 3d 17 3d 3e 54 c7 36 3d 44 ee 05 be 34 05 73 3e
       0.18465896 0.044623688 -0.13079172 0.23732454
000270 0d 99 2c be 8f 74 13 be bb 6c 9f bb 8e df 10 bd
       -0.16855259 -0.14399932 -0.0048652566 -0.03536945
000280 0d a3 61 be 05 75 92 3d 11 3d 5c be 3c 45 d4 bd
       -0.22034855 0.07151226 -0.2150767 -0.10364768
000290 94 16 cb bc f4 ce 7a 3e 4d 45 3f be 85 1a 6a 3e
       -0.02479104 0.24493009 -0.1867878 0.22861679
0002a0 31 96 0b 3d 14 2b 4c 3e af 6f 7b 3e d5 e7 f7 3d
       0.03407878 0.19938308 0.24554323 0.12104765
0002b0 0a 66 54 3e a5 8c 67 3e c1 26 7d 3e 21 e9 dc 3b
       0.2074205 0.22612245 0.24721815 0.0067416583
0002c0 97 3a d0 3b 49 0b c1 bd f5 80 6a 3e dd 31 6d 3e
       0.0063546407 -0.094259806 0.22900756 0.23163553
0002d0 94 2e 39 be 7f 2b 0e 3e bc 82 13 3e 44 c4 a0 3d
       -0.18084174 0.1388378 0.1440534 0.07849935
0002e0 83 58 f0 bd 79 63 bd bd b4 23 12 3e 10 fd 3e be
       -0.11735632 -0.092474885 0.14271432 -0.18651223
0002f0 d1 f6 ac bd d7 45 57 3e 7e 3b 5f 3d 43 14 73 3e
       -0.08445514 0.21022736 0.054500096 0.23738198
000300 a1 a9 ac bd ec f7 ee bb fb 56 89 3e ce 73 e3 3d
       -0.08430792 -0.007292738 0.26824173 0.11106072
000310 31 e8 5d 3e b1 12 05 be 95 4b a9 bc 5d 69 86 be
       0.21670605 -0.12995411 -0.020665923 -0.2625226
000320 c1 bf 7c 3e 9f 28 62 bd 01 89 30 be 35 fc 7a 3e
       0.24682523 -0.05521452 -0.17239763 0.24510272
000330 53 ca 45 be 43 9d 88 3d d6 1b 38 be 7d 9c 09 be
       -0.19315462 0.0667062 -0.17979369 -0.13438602
000340 8c f6 c4 3d d5 93 b0 bc 0e 02 99 bd 1a 2f 14 3e
       0.096173376 -0.021554867 -0.07471095 0.14471093
000350 b9 c8 26 3c c4 6e 04 be 0b 4e c3 3b 77 06 4d be
       0.010179692 -0.12932879 0.005960231 -0.20021997
000360 33 39 95 bd 41 c6 56 3e 84 74 11 3e 17 f3 7e be
       -0.072863005 0.20974065 0.14204603 -0.24897419
000370 fc 26 79 be 57 d1 10 3e 35 45 9c 3d 97 24 27 be
       -0.24331278 0.14142357 0.07630388 -0.16322552
000380 c8 12 62 3d
       0.055193692

0.bias f4 [15]
000000 8a 7f a6 bd d5 0f 02 3e 23 5a 00 be 0d 27 48 3e
       -0.08129795 0.12701352 -0.12534384 0.19546147
000010 9e 94 75 be 5a c9 0d 3d e3 51 8f bd eb cb 9b bd
       -0.23982474 0.034615852 -0.069980405 -0.07607254
000020 d6 a1 2d be b3 0a 5a be 5d 2e 81 3e 88 13 57 3d
       -0.16956267 -0.21293144 0.25230685 0.05250886
000030 f2 e0 2f be ed 5a 6f 3d 81 9f 1b be
       -0.17175654 0.058436323 -0.15197565

3.weight f4 [38, 15, 5]
000000 66 df a7 3d 00 14 d0 3d 8d 91 6b 3d 5a ea c4 bc
       0.08196907 0.10160065 0.057511855 -0.024037529
000010 c2 70 0c bd cd 7e 21 3d ca 35 bc bc c0 35 32 3e
       -0.03428722 0.039427567 -0.022974867 0.17403316
000020 35 eb 88 3d b9 24 02 3c a2 84 ef bc 50 db 1d bc
       0.06685487 0.007943326 -0.029238049 -0.009634808
000030 7a 1e 85 bd 79 90 c6 3d f7 45 73 bd 8a d2 1d bd
       -0.064999536 0.09695525 -0.059392896 -0.038530864
000040 38 4a 35 3e ee fa 82 3d d3 73 20 3e c0 93 a0 3d
       0.17704093 0.06395517 0.15669183 0.07840681
000050 6a 05 48 ba 3b 68 da 3d 23 f8 61 bd 21 49 64 3d
       -0.0007630201 0.10664412 -0.055168282 0.055733804
000060 e9 33 aa bc 7f 01 8f 3d ae 4c 9a bd 33 63 cd 3d
       -0.020776706 0.06982707 -0.07534157 0.100286864
000070 32 ec e5 3c 93 77 ba 3d 37 65 8b bd f6 24 30 3c
       0.028066728 0.09104838 -0.068064146 0.010751
000080 4e 11 d3 bd 36 49 a1 3d 72 28 4b bd 7c 2e 56 bd
       -0.10306035 0.07875292 -0.04959912 -0.052290425
000090 b9 f3 ed bb fd 65 eb 3d 28 e2 4c bc 09 14 4b 3d
       -0.00726172 0.11494062 -0.012505092 0.049579654
0000a0 6a 38 cb bd 2e 84 38 3d d3 2e 9c bd e9 06 ac bd
       -0.099228695 0.04504793 -0.076261185 -0.083997555
0000b0 2b 94 ec 3a 71 00 bd bc 8e 0c cd bd 2c 0c 86 3b
       0.0018049529 -0.0230715 -0.1001216 0.0040908065
0000c0 8f 31 ce 3d 75 61 30 3d c6 47 1b 3e 2a 0b 97 3c
       0.10068046 0.043061692 0.15164098 0.01843794
0000d0 8a 95 17 3e d8 ea eb 3d 68 61 16 3e 2e 92 71 3d
       0.14803138 0.11519402 0.14685595 0.0589773
0000e0 96 dd 2c 3b 20 fc 35 bd 2a ed a2 3d a8 26 10 bd
       0.0026377193 -0.0444299 0.07955392 -0.035193115
0000f0 24 13 62 3d b5 57 b3 bd 06 0a d6 3c 1f 13 c6 3c
       0.055194035 -0.08756963 0.026127826 0.02417904
000100 77 bd 31 3e 7d 67 96 bd 58 5b 92 3d e9 d0 03 3e
       0.17357431 -0.073439576 0.07146329 0.12872662
000110 6a f0 be 3b 30 34 6d bc d2 11 ae 3d ba fe bf bd
       0.0058269994 -0.0144777745 0.08499493 -0.09374757
000120 ef 42 d8 3c 05 82 95 bc c0 aa c6 bd 90 7d 35 bb
       0.026399104 -0.018250475 -0.09700537 -0.002769325
000130 ec cd 57 bd cd 76 8b 3d 14 e0 90 bd 9e ac bc bc
       -0.052686617 0.06809769 -0.070739895 -0.023031529
000140 91 1d 34 3d 17 63 ca 3c f8 0f 91 3d 48 9b a9 3c
       0.04397351 0.024705453 0.07083124 0.020703927
000150 03 d6 2f 3d ea 67 4a 3d dd 22 0c bc 0b 73 50 bd
       0.042928707 0.049415506 -0.008553234 -0.050890964
000160 50 4f 56 3d 56 91 d3 bd 7c 44 1d 3d ea 9e 03 3b
       0.052321732 -0.10330455 0.03839539 0.0020083734
000170 b4 7b 2a bd 14 75 87 3c f0 d6 b8 bd 7e b6 cb bd
       -0.04162188 0.01653532 -0.09025371 -0.09946917
000180 a4 83 bd bd aa ee d4 3d 2b 4e a3 3c f6 69 47 bd
       -0.09253624 0.10397084 0.019934734 -0.048685037
000190 3d 14 eb 3d d1 9b 9e bd fd 53 16 3c fe 10 26 bd
       0.114784695 -0.07744563 0.009175298 -0.04054355
0001a0 2d cf 64 bd cf be 96 3d 1d c1 67 3c 35 c0 07 bd
       -0.05586164 0.073606126 0.014145163 -0.033142287
0001b0 61 e2 f6 bd ce 50 b5 3d 7c 11 40 3d fc 51 c4 3d
       -0.12054897 0.08853303 0.046891674 0.0958595
0001c0 b7 dc ea bd 55 8d d7 bc 77 dc bc 3d d0 80 2e 3d
       -0.11467879 -0.02631251 0.09221738 0.042603314
0001d0 bf 55 9e 3c 11 d9 c7 bd a3 6f 5b 3d cf 52 a3 bd
       0.019327996 -0.09758199 0.053573262 -0.07974779
0001e0 0d 65 97 bc aa d7 78 bd 14 37 a0 3d 51 21 c1 bc
       -0.018480802 -0.06075255 0.07823005 -0.023575457
0001f0 46 bb 85 bd d1 f1 0b bd 33 75 b7 bd 53 1a c7 bd
       -0.0652986 -0.03416616 -0.08957901 -0.09721818
000200 1b 49 9c 3d 35 e8 93 3d 00 a9 da 3d 7e b2 a4 3d
       0.07631131 0.07222024 0.106767654 0.08041857
000210 ae d2 02 3c 19 97 97 bd 73 8a b1 3d d0 dd 04 be
       0.0079848 -0.074018665 0.08668985 -0.1297524
000220 11 90 9a 3d e8 2a bb 3d 01 7b 6c 3c 5d b8 92 bd
       0.0754701 0.09139043 0.014433623 -0.07164071
000230 6a a1 d9 bc 69 6b f7 bd cc da c2 3d 33 ec f3 bd
       -0.026566226 -0.12081034 0.095143884 -0.11910286
000240 d2 80 4e bb c3 fa e6 bb 1a e7 b4 bd 46 be ad 3d
       -0.0031509888 -0.007048936 -0.088331416 0.084835574
000250 b6 76 dc 3c 5d 2d cd 3d 15 34 5b bd 0a f7 b1 bd
       0.026912075 0.10018418 -0.053516466 -0.08689697
000260 93 05 c3 3d b8 33 0e 3d 28 17 5f 3d f3 59 02 be
       0.095225476 0.03471729 0.054465443 -0.12729625
000270 0e 9a 70 bd 2c 3f 70 3b 35 eb 22 3d e1 a0 13 be
       -0.058740668 0.0036658747 0.039775092 -0.14416839
000280 e3 67 a3 3d 73 a0 ed bd c8 4a 85 bd 72 ea 3b bd
       0.07978799 -0.11602869 -0.06508404 -0.04587788
000290 9c 89 a3 bd 4e 88 70 bd 43 52 c5 bd 93 60 08 be
       -0.07985231 -0.05872374 -0.09634831 -0.1331809
0002a0 22 81 76 bd fc 50 81 3c ce 8e 83 3d f8 31 91 3b
       -0.060181744 0.015785687 0.06423722 0.0044310056
0002b0 fb 3c b1 3d 9f fb 39 3d a3 b4 c5 3b d1 be 08 bc
       0.08654209 0.04540598 0.0060334965 -0.008346275
0002c0 05 91 91 3d 4a 94 b1 bd 5c 8d 28 bd 0e 67 dd 3c
       0.071077384 -0.08670862 -0.041150436 0.02702668
0002d0 e7 46 95 3c 6b b0 c8 3d 80 9e c9 3d d7 53 10 3d
       0.018222285 0.09799274 0.098446846 0.035236206
0002e0 eb 71 e8 bd 07 f4 a3 3d ca 85 b5 bd b9 51 f0 3d
       -0.11349853 0.08005529 -0.08863409 0.11734337
0002f0 e1 6d 91 bd 2c d7 79 3d c8 22 3e 3d 89 df 12 bd
       -0.07101036 0.06099622 0.04641989 -0.03585771
000300 82 f6 ba bc f9 97 b3 3d 56 d9 81 3d 7f 44 a2 bd
       -0.022822622 0.08769221 0.06340282 -0.07923221
000310 39 c7 99 bd 84 cf b2 3d c6 d6 30 3d 9e 2d 56 3c
       -0.07508702 0.08730987 0.043173574 0.013072399
000320 24 62 6e 3d 4f 3e 00 be d4 cc 01 3d 7d 2b b3 bd
       0.058199063 -0.12523769 0.03168948 -0.08748529
000330 13 07 2c 3c 31 58 c5 bd f7 e7 c5 3d 78 1b a0 3d
       0.0104997335 -0.09635962 0.096633844 0.07817739
000340 5c 1c ba bd 5a b9 8e 3d 29 14 e8 bc 43 6f 82 bd
       -0.0908744 0.06968947 -0.028329926 -0.06368878
000350 ce 16 09 3e fd 30 1e bd 6b 20 9a 3d 09 00 df bd
       0.13387606 -0.038620938 0.075257145 -0.108886786
000360 0a 49 42 bd 92 52 ba 3d 3e 84 e2 3d 1d 26 a8 3d
       -0.047432937 0.0909778 0.110603794 0.082103945
000370 f5 4a 32 bd 57 e1 e1 3d 79 8c 31 bc b9 64 65 3d
       -0.043528516 0.11029308 -0.010836714 0.05600426
000380 f5 3a 8f bd f5 6a 2d 3d 19 d7 f7 3c 67 90 b6 3d
       -0.06993667 0.04233833 0.030253934 0.08914261
000390 87 f7 9c bd 33 a4 02 3d e2 67 0a 3d d7 58 a8 3d
       -0.076643996 0.031894874 0.033790477 0.0822007
0003a0 09 8a e6 bd f0 de 5d 3d 66 5f ae bd 86 e8 b8 3d
       -0.11256797 0.054167688 -0.085142896 0.09028725
0003b0 d2 6b 79 bc c6 66 1e bc cc 77 26 3d 5c ba a7 bd
       -0.01522346 -0.009668058 0.04064159 -0.08189842
0003c0 3f a8 d8 3d d8 d3 0c bd 7f 8d bb bd 56 a3 3d 3d
       0.105789654 -0.034381717 -0.091578476 0.046298347
0003d0 54 54 25 3d 97 09 68 3d 46 a1 0a bd d7 3a d8 bd
       0.040363625 0.05664977 -0.03384521 -0.10558098
0003e0 26 ef db bd 8e 71 da bc 39 ea cd bd f3 e8 db 3d
       -0.10738973 -0.026665475 -0.1005444 0.10737791
0003f0 76 67 a9 bc 02 c3 c5 3d cf 72 c9 bd 82 6f b6 3d
       -0.020679217 0.096563354 -0.09836351 0.08907987

3.bias f4 [38]
000000 7e f3 0f 3e ea b8 2b bb c7 29 9f bd 08 47 f4 bd
       0.14057729 -0.0026202747 -0.0777164 -0.11927611
000010 7e b6 1c 3d 57 c6 c5 3d d1 e5 1a bd 54 a5 d5 bd
       0.038259976 0.09656971 -0.037816826 -0.104319245
000020 3b da 13 3e 70 14 f0 3d d8 ff f4 bc 99 b5 59 bd
       0.14438717 0.11722648 -0.029907152 -0.0531517
000030 32 56 b2 3d 16 79 f7 bd 26 97 e6 3c 3c 33 3f bd
       0.08707847 -0.12083642 0.028148245 -0.04667972
000040 32 21 96 3d 3c ca fa 3b cb a3 c6 3c 23 d9 a9 3d
       0.0733055 0.0076535027 0.024248024 0.08293369
000050 a4 8a 01 3e 1b e6 5a 3d ce e7 b4 3c cd 68 c1 3d
       0.12650543 0.053442102 0.02208319 0.09443817
000060 23 52 4b 3d 1c 5a ae 3c fc 75 66 bd 50 95 fb 3d
       0.04963888 0.021283202 -0.056264862 0.122843385
000070 0e 89 9d bd 9c ea 70 3d 2f 1e 72 3d 2b 92 d8 bd
       -0.07692157 0.05881749 0.059110817 -0.10574754
000080 8f ae 7f bd 4a 72 ad bd 8a 4b e2 bd 45 a9 f5 3d
       -0.06242233 -0.084690645 -0.11049564 0.11995176
000090 c1 25 e5 3d 56 05 0e bd
       0.111888416 -0.034673057

7.weight f4 [197, 760]
000000 bb 28 d4 bc 80 f7 94 bc 86 31 1a 3c ba 55 f1 3c
       -0.025898328 -0.018184423 0.009411221 0.029459823
000010 75 f2 97 3c 1d 97 11 bd 24 40 f3 bc d0 b8 94 bb
       0.01854823 -0.035544503 -0.02969367 -0.004538633
000020 0c f1 5d bc b7 e1 da 3b d5 35 07 3d f1 00 ec bc
       -0.01354624 0.0066797393 0.033010323 -0.028809043
000030 6d 2e f5 bc 1c 2d b5 3b c6 4a 93 bc ca 8f d6 bc
       -0.029929364 0.005529059 -0.01797999 -0.02619161
000040 7c 65 f3 3b c5 3c 4e 3c 68 92 c1 bc a1 13 4d bc
       0.0074278694 0.012587731 -0.023629382 -0.012516887
000050 6e 97 9c 3c 82 0d 76 3c ee c8 00 bd 25 d4 7e bc
       0.019115176 0.015017869 -0.03144162 -0.015553509
000060 2e 8a 85 3a 52 4c f4 bc ef db 54 bc 5e 3e 31 bc
       0.0010188275 -0.029821549 -0.012991889 -0.010818092
000070 82 b4 03 bb 64 62 e0 3c 31 0d 07 bd 23 55 52 ba
       -0.0020096605 0.027390666 -0.032971565 -0.00080235506
000080 6e b4 79 bc b4 5e f7 bc 94 6d 94 bb 41 36 45 bb
       -0.015240772 -0.030196525 -0.0045296643 -0.0030092152
000090 7a 24 2d 3c 1a d2 c1 bc 25 54 21 3c 9c a7 be 3c
       0.010567779 -0.023659755 0.009846722 0.023273282
0000a0 43 29 09 3d c5 d0 76 3b bd ed d2 3b 73 d0 d3 bc
       0.033486616 0.0037661057 0.006437032 -0.025856232
0000b0 03 13 1f 3b 96 4b 84 3b ca 29 35 3c 3b 35 f6 bc
       0.0024272806 0.004037331 0.011057327 -0.03005468
0000c0 ce 3a 0a bd 80 53 eb 3c 32 97 18 3c 67 03 0c 3c
       -0.033747487 0.02872634 0.0093133915 0.008545733
0000d0 ec 1c 93 bb eb 40 90 3a e1 5b 50 3c 35 cf f8 3c
       -0.0044895317 0.0011005675 0.012717218 0.030372242
0000e0 78 62 9b bc 31 08 31 bc 7b f8 5b bc b2 60 64 3c
       -0.018967852 -0.010805176 -0.013425942 0.01393907
0000f0 fc 40 a8 3c 83 e9 0e 3c 73 40 12 bd 8f 3e 44 3c
       0.0205388 0.008722666 -0.035705995 0.011977806
000100 34 2b 7f 3c 0b 39 f8 3a 43 c4 06 3d 39 0f bd 3c
       0.015574265 0.0018937899 0.032902014 0.023078548
000110 67 85 89 bb b3 f3 38 3b ba b2 d4 bc ec 27 00 3b
       -0.004196811 0.0028221428 -0.02596413 0.0019555045
000120 ba cf 09 3d 10 89 5a bc f4 9b de bc b9 60 24 3c
       0.03364537 -0.013338342 -0.027173974 0.010032826
000130 9a 06 9d 3b a3 c1 02 3d 19 82 12 bd b3 69 58 bc
       0.0047920467 0.031922948 -0.035768602 -0.013208794
000140 81 ba 61 3b 45 49 b9 bc 73 6d d2 bc b4 ad 11 3d
       0.003444344 -0.022617945 -0.025686955 0.035566047
000150 c6 34 fc bc e1 45 c1 bc ae d7 50 bc a9 d1 ab 3b
       -0.030786883 -0.023592891 -0.012746735 0.0052434993
000160 25 4a c3 bc f2 07 08 bb 28 b3 4b bb 49 e7 ad 3b
       -0.023839066 -0.002075669 -0.0031082127 0.0053071124
000170 80 df f6 bc fe 47 73 3c 73 82 3f bb 81 6a 98 bb
       -0.03013587 0.014848707 -0.002922204 -0.004651368
000180 91 9a b9 3c e0 17 3e bc 2a 4e 74 bc cc 84 68 3c
       0.02265671 -0.011602372 -0.014911214 0.0141918175
000190 f7 ec 79 3c 93 3c ab bc e0 f8 78 bc 7b b3 a8 3c
       0.015254251 -0.020902907 -0.015196055 0.020593395
0001a0 06 59 d8 3c fe 18 1d bb d7 00 b2 3c e4 d4 8a bc
       0.026409637 -0.0023971195 0.021728916 -0.016947217
0001b0 05 b6 91 3c fb 81 e1 3c fb 97 01 bd dc 01 c6 3b
       0.017786989 0.0275278 -0.03163908 0.006042702
0001c0 19 88 a4 bc 28 4e f6 3c 91 a2 90 bc d6 a2 0a bd
       -0.020084428 0.030066565 -0.017655643 -0.0338467
0001d0 2e c8 93 3c a3 6c 94 bb d0 d7 70 bc 95 dd e9 3c
       0.018039789 -0.004529552 -0.014699891 0.028548041
0001e0 66 1e 0d 3d 2c 3c 8b bc bb 1f d2 3c 4f fc a4 3c
       0.03445282 -0.016996466 0.025649896 0.020139841
0001f0 75 d5 26 3c 79 1e 26 3b ca 43 aa 3c ea ac 50 3c
       0.010182728 0.0025347753 0.020784277 0.012736538
000200 25 aa b4 bc 13 e0 a9 bc 61 e0 37 39 92 d8 58 ba
       -0.022053787 -0.02073673 0.00017535828 -0.00082720176
000210 f1 39 fd 3a cf 0b 35 bc 2b 22 76 bc cd 2a 06 bb
       0.0019319636 -0.011050179 -0.015022795 -0.0020472289
000220 30 67 06 3d 3f 5c 05 3d 21 45 8f 3c 1d 64 15 3c
       0.03281325 0.032558676 0.017489018 0.009118107
000230 c2 ac 0b bd 1c 64 0b 3d 6d c4 08 3d b2 8a b8 3c
       -0.0341003 0.03403102 0.03339045 0.022527073
000240 1f c4 e3 bb 32 15 f8 bc b1 c1 9d bc d3 28 a7 bc
       -0.0069508697 -0.030283544 -0.019257398 -0.020405209
000250 e4 5c a6 bc 6a 2e 26 3c 77 09 e7 3a 35 8a 03 bd
       -0.020307966 0.010142902 0.0017626722 -0.032114226
000260 ae e7 a4 bb de c6 50 3c 66 8a 0c bd 78 9d 08 ba
       -0.005032501 0.012742726 -0.034311675 -0.0005211453
000270 94 25 bf 3c 2c 55 a6 bc a2 81 46 3c 95 ff 8d bc
       0.023333348 -0.020304285 0.012115868 -0.017333785
000280 10 43 1a 3c 62 ed 73 bc 1a eb d6 3a f3 6f 20 3c
       0.009415403 -0.014888139 0.001639697 0.009792316
000290 59 54 b9 bc 66 61 4c 3c b3 49 99 bb 34 f8 a1 3c
       -0.022623228 0.0124743935 -0.004677975 0.019771673
0002a0 ad a5 88 3c 1e eb b3 bc 80 da ae 3c 16 33 23 bc
       0.016680563 -0.021962699 0.021344423 -0.00996091
0002b0 22 2a 2c bc 36 0b a6 bc 56 d5 bf 3c 45 ab d3 bc
       -0.010508092 -0.020269018 0.023417156 -0.025838504
0002c0 0e e7 e8 3c 9c 65 13 3d 4b 40 51 3c 8b 05 cf bc
       0.028430488 0.035985574 0.012771676 -0.025271198
0002d0 20 7e 87 bc f9 8e c3 3c 85 3e 61 bb 54 6f 88 3b
       -0.016539633 0.023871886 -0.003436954 0.004163662
0002e0 f1 df ae bc 0f fe 95 bc 6e 35 e8 bc 2c ac bb bc
       -0.021347018 -0.018309621 -0.02834579 -0.022909246
0002f0 11 e6 2c 3c 11 ca 2e 3b 5d ac 0e 3d f5 25 8d 3c
       0.010552899 0.0026670734 0.034832347 0.017230013
000300 1e 8f 24 bc 87 08 04 bd 74 6f 96 3c 1f aa e7 3c
       -0.010043887 -0.032234695 0.018363692 0.028279362
000310 da 9d b2 3c 1c fa 07 bc 53 f6 7a bc cf b8 c7 ba
       0.021803785 -0.008299377 -0.015317517 -0.0015237572
000320 f0 a1 c8 3c fe 60 0c 3c ca 64 a9 3c 5c 3a df bc
       0.02449128 0.008568047 0.020677943 -0.027249508
000330 64 03 33 bb 68 61 d6 bc d0 35 8b 3c 7d 30 fa bb
       -0.0027315253 -0.026169494 0.016993433 -0.007635175
000340 80 09 9b bc 74 55 a9 bb 59 b6 52 bb b7 fa 30 3b
       -0.018925428 -0.0051676575 -0.0032152145 0.0027004906
000350 d4 61 9d bb fd da 26 3c 39 25 8d bc 7a 82 01 bd
       -0.004802922 0.010184047 -0.017229663 -0.031618573
000360 58 97 83 bc 61 a9 9c bc 3c 2b aa bc fe f6 b6 bc
       -0.016063377 -0.019123735 -0.020772569 -0.022334572
000370 f3 eb 8a 3c 06 5a b4 3c a9 c7 12 bd c6 56 4d 3c
       0.016958212 0.022015583 -0.035834942 0.012532895
000380 96 4a 0d 3d 1a 57 c6 bc 82 4d 4e b9 1f 97 cc bc
       0.03449496 -0.024211455 -0.00019674565 -0.024974404
000390 8f 4b cb bc 75 e9 a8 3c 7d 7d 68 3c a2 a8 f5 3c
       -0.024816303 0.020619133 0.014190075 0.029987637
0003a0 f9 9d 5a bc 8c 3e f0 bc 3f 36 d9 3c 09 d2 6c 3c
       -0.013343328 -0.0293267 0.026515124 0.014454373
0003b0 4b 39 2c 3b d8 8e ab 3c b3 7a bc ba 85 08 4f 3c
       0.0026279266 0.020942137 -0.0014379829 0.012636309
0003c0 65 c5 b1 3c b7 d5 f7 bc ca 7a 9f bb af 80 cf bc
       0.02170057 -0.030253274 -0.0048669325 -0.025329916
0003d0 58 b1 f7 bc 4f be b7 3c bb 38 d9 3c 49 77 8a bc
       -0.030235931 0.022429613 0.026516309 -0.016902583
0003e0 47 9d 94 bc 8c e4 5b bc 32 16 66 bc ae 8d 01 3d
       -0.018141402 -0.013421189 -0.014043378 0.031629257
0003f0 a3 43 0e bd ed 04 1a 3c 1e bd d7 3c 82 ec ad 39
       -0.034732472 0.009400588 0.026335295 0.00033173343

7.bias f4 [197]
000000 02 4d c9 3b da d5 86 3c 03 2a de 3c bb 6e e7 3c
       0.0061432132 0.016459394 0.027119642 0.028251043
000010 be 6b 0f bd e1 1e 5d ba 7e ec 20 3c 69 5e c4 3c
       -0.03501486 -0.0008435082 0.009822009 0.0239708
000020 18 21 39 3c 6f df ed bc c5 87 02 bd 0b 31 d2 39
       0.011299394 -0.029037206 -0.03186776 0.0004009086
000030 c9 92 a4 bc c2 04 10 3d e4 09 85 bc ad eb e1 bc
       -0.020089524 0.035160787 -0.016240068 -0.0275782
000040 e9 10 1f bd 05 0e f2 bc 17 3e a4 bc 22 99 90 3a
       -0.038834486 -0.0295477 -0.020049138 0.0011031965
000050 1c 45 6c 3c ca f5 85 bc d3 5f d0 bc 57 89 0b 3d
       0.014420774 -0.016352553 -0.025436318 0.034066524
000060 6d 91 90 bc b2 f1 9a bc eb 63 6f bc aa 8e bb bc
       -0.01764747 -0.018914077 -0.014611225 -0.022895176
000070 62 6e 5c bc a0 48 d9 bc 9c 7b b1 bc 43 30 e1 3c
       -0.013454052 -0.026523888 -0.021665387 0.027488833
000080 85 25 66 3c 02 ce c6 bc 0e 49 06 3b 72 b3 0e bc
       0.014047031 -0.024268154 0.0020490321 -0.008709775
000090 7d 72 ae bc 63 83 d6 3c 8f 36 8b bc 0f 27 db 3c
       -0.021294827 0.026185697 -0.016993789 0.026752023
0000a0 af 92 84 3c 78 07 50 3c 91 0d c4 bc 84 1a b1 3c
       0.016183225 0.012697093 -0.02393225 0.021619089
0000b0 82 4a e7 bb 1f a0 a4 bc 4e 9a ed 3c d6 c9 82 3c
       -0.0070584426 -0.020095883 0.029004242 0.015965383
0000c0 53 25 cf 3c 10 84 fd 3b 4f bc da bc cc 79 d5 bc
       0.025286352 0.0077366903 -0.02670112 -0.026059054
0000d0 98 c5 fb 3c dc 90 bc bc c5 85 ee bc b5 98 9b 3c
       0.030733868 -0.023018293 -0.02911652 0.018993715
0000e0 ae 88 32 bd a8 95 a0 bc 90 33 d7 3c 90 e7 3a bb
       -0.04358738 -0.019602612 0.026269704 -0.002851937
0000f0 a8 9c ef bc 58 10 5f 3c ef 3c b1 3c c9 02 2d bd
       -0.029249504 0.0136147365 0.0216355 -0.042238984
000100 c9 f9 c5 3c a8 42 08 3d 2b 36 13 3d 92 55 49 bd
       0.024166958 0.033266693 0.03594033 -0.04915387
000110 3d 43 f5 3c 9d ea 8d bc 2c 85 29 3d 98 5e 13 3d
       0.029939288 -0.017323786 0.04138677 0.035978884
000120 36 00 e2 3c 2a d1 a5 3c 6d c5 23 bd 87 8a 86 bc
       0.027587991 0.020241339 -0.0399832 -0.016423477
000130 12 6b 78 b9 2c be 05 3d 38 d8 0a 3c 6c 88 e8 39
       -0.0002369101 0.032652065 0.008474402 0.0004435213
000140 4d b5 d4 3c 5b d7 9d 3b 25 d4 c9 3c da bd 3c 3c
       0.025965357 0.004816932 0.024637291 0.0115198735
000150 6e e4 a9 3c 00 80 20 3b a4 ae 82 3c 98 3d 04 bd
       0.020738807 0.0024490356 0.015952416 -0.032285303
000160 14 a9 f6 bc 61 f7 d4 bc 73 66 d7 bc 77 5e 8d bc
       -0.03010992 -0.025996866 -0.026293969 -0.017256958
000170 2b 82 18 bd 21 1f b3 bc 02 2a 1e bd 81 d5 cb 3b
       -0.037233513 -0.02186543 -0.03861428 0.00622052
000180 10 dc 8d bc 92 54 ac bb 9b a9 ee 3b 3f 22 b8 3c
       -0.017316848 -0.005259105 0.007283402 0.022477267
000190 a1 01 b4 bc 3e 0a 60 3c 13 53 01 3d 38 3c c8 bb
       -0.021973433 0.013674317 0.031573366 -0.0061106943
0001a0 c4 9a 85 3c 5c 6b 0b 3d 8d 8b c9 3b 8d 21 d4 3b
       0.01630915 0.034037933 0.006150669 0.006473726
0001b0 ab bd 2e 3c e3 cc 08 3d f5 c7 9c bc ce 5f dd bc
       0.010665338 0.03339852 -0.019138316 -0.027023222
0001c0 03 57 5a 3c f2 72 df 3c 03 b2 96 b9 3b 96 80 bc
       0.013326409 0.02727649 -0.0002874286 -0.015696635
0001d0 67 14 3e bc e2 6a e6 bc ec cf 06 3d cb 92 e7 bc
       -0.011601544 -0.028127138 0.032913134 -0.028268239
0001e0 1c 62 98 3b be 78 03 3d f1 1b 06 bd 75 61 bc bc
       0.0046503674 0.03209757 -0.03274149 -0.02299569
0001f0 9a fd cc 3c c7 ee 0b 3c 55 21 cc 3c ca 9a 33 3c
       0.02502327 0.008540816 0.024918238 0.010962198
000200 31 47 b7 bb 47 85 d7 3c d8 56 eb 3c fe 88 15 bd
       -0.0055932035 0.026308669 0.028727934 -0.0365076
000210 1a 18 5e 3c 6f 37 d3 3c 86 ab f1 3c bd 4f 03 3c
       0.013555551 0.025783269 0.029500734 0.008014617
000220 1b f6 6a bb 4a 1f af bb 03 c6 07 3c 9f 79 22 bc
       -0.0035852257 -0.005344306 0.008286956 -0.009916692
000230 ba 45 5a 3c 60 1e 70 3c a2 32 6f 3c 98 78 34 bc
       0.013322288 0.014655679 0.014599474 -0.01101508
000240 85 0c 24 3d d7 1f fc bc ff 28 dc 3c 6f d3 97 bc
       0.040051002 -0.030776901 0.026875017 -0.018533437
000250 c1 b6 13 3d c0 e5 8a bc 27 43 f4 bb e5 d4 08 3d
       0.03606296 -0.016955256 -0.0074542942 0.033406157
000260 e5 be 2e bc a8 c4 1a 3d 16 c3 cd 3a 01 01 06 3d
       -0.01066563 0.037785202 0.0015698399 0.0327158
000270 5c 35 0b 3d c0 3d c8 ba 07 f4 0c 3d 50 a2 33 3c
       0.033986434 -0.0015277192 0.03441241 0.010963991
000280 58 13 8f bc b0 e4 39 bc b0 01 db 3b 8e f9 48 3b
       -0.017465279 -0.011346027 0.006683551 0.0030666324
000290 69 2f e2 3b 29 01 71 3b 3e 0b ab bc f7 50 0f bd
       0.0069026244 0.0036774373 -0.020879384 -0.034989323
0002a0 c1 ad ca 3c b4 59 b3 3c 81 8d b4 bc 7e 33 ab bc
       0.024741055 0.02189336 -0.02204013 -0.020898577
0002b0 94 64 c1 bc 8c 5b 5e 3b c2 38 45 bd 9e 4f 98 3c
       -0.02360753 0.0033929078 -0.04814983 0.018592652
0002c0 99 32 08 3d 0f e8 60 bc 81 b4 06 bd 01 99 41 3c
       0.03325138 -0.013727202 -0.032886986 0.011816264
0002d0 cb 24 19 3c 0d 5d ff bc 53 b2 69 3b 00 8a 7b 3c
       0.009347151 -0.0311723 0.0035659268 0.015352726
0002e0 59 33 95 3c f0 85 07 3c bc 8d fa bc 38 92 41 bc
       0.018212961 0.008271679 -0.030585162 -0.011814646
0002f0 e4 66 01 bd a9 af 9a bc 0f d8 ed bb 68 0e 7a 3c
       -0.031592265 -0.01888259 -0.007258422 0.015262224
000300 03 1a ac bc 64 01 d1 3c 94 40 1a bd 95 8e 02 bd
       -0.021008497 0.025513358 -0.037659243 -0.031874258
000310 fa 16 3f 3c
       0.011663193

9.weight f4 [2, 197]
000000 10 7d 5e bc 22 ab 85 3d ff a1 58 3d 16 f4 86 bc
       -0.013579622 0.065267816 0.052888867 -0.016473811
000010 1f 52 d4 3c 0a 0c 34 3d cf 72 02 bc b6 68 f0 bb
       0.025918065 0.043956794 -0.007961943 -0.0073367013
000020 02 1d 89 3d 44 70 4e 3d 49 47 d4 3c a7 42 02 3c
       0.06694986 0.050400034 0.025912898 0.0079504615
000030 47 15 6f 3d 97 d9 fd bc d9 58 84 bd 24 ec 5a 3d
       0.0583699 -0.030987544 -0.06462259 0.053447857
000040 95 a4 44 bd 89 f5 a4 bc b2 c0 61 3d ee 4d 56 bd
       -0.04800852 -0.020136612 0.05511541 -0.052320413
000050 6e f3 1b b9 53 b8 82 bd 44 7a c2 bc 6b b4 3e 3d
       -0.00014872637 -0.06382813 -0.023739941 0.04655878
000060 17 30 91 bc 8b 15 a0 bc 0d d6 15 3d 87 7e 31 bd
       -0.017723126 -0.019541522 0.036581088 -0.043333557
000070 0a 4e d1 bc a7 1c 6f bd 10 c2 bd 3c 65 3b 88 3c
       -0.025549907 -0.058376934 0.023163825 0.016629884
000080 38 1e 33 bd 0b a2 ae 3c 9d b3 85 3c 89 ff 0c bc
       -0.04372999 0.021317502 0.016320998 -0.008605846
000090 94 9a ae bc 23 a9 82 bc a6 46 47 3d fa 29 32 bc
       -0.021313943 -0.015949791 0.04865136 -0.010874266
0000a0 cb 9f 8a 3d b3 3a 21 bb 44 e3 b6 bc 51 87 87 bd
       0.06768759 -0.0024601638 -0.022325166 -0.066176064
0000b0 cd 3e 33 bc 23 b8 5d bc 75 f9 71 bd c8 ea 02 3d
       -0.010940266 -0.013532671 -0.05907579 0.031962186
0000c0 e4 1d 3a 3d 19 0e 96 b9 6f 9b 87 bd 79 77 a7 3b
       0.045438662 -0.00028620733 -0.066214435 0.005110678
0000d0 e0 e9 25 3d 8c 1d 84 bd 92 40 c4 3c 16 e1 5e 3d
       0.040506244 -0.06450948 0.02395657 0.054413877
0000e0 9d 6d 95 3c ad a9 6d 3a 5d 7e 52 3d 51 e4 81 bd
       0.018240744 0.0009066116 0.05139004 -0.06342376
0000f0 8e c6 10 3d 10 78 ec bc cb be 88 3d e0 dd 3d 3d
       0.035345607 -0.028865844 0.06677016 0.046354175
000100 0b 10 65 bd 53 da 61 bd 87 0a c6 bc 6d 73 19 3c
       -0.055923503 -0.05513985 -0.024174942 0.009365899
000110 c7 f4 b2 3c 62 17 02 bd ff e0 10 bd b0 73 88 3d
       0.021845235 -0.03176058 -0.035370823 0.06662691
000120 88 28 70 3d 3a 0b 8c bd 66 4b 27 3d 3c 14 4f 3c
       0.058632404 -0.06838079 0.04084339 0.012639102
000130 0c d8 88 bc 6d aa 7d 3d 88 f8 4f bd 95 ec 8a 3d
       -0.016704582 0.06193011 -0.050774127 0.06783406
000140 2f ae 19 3d 8d 58 36 3d ed 69 90 3c f3 0a 31 3d
       0.03751963 0.044518042 0.017628634 0.043223333
000150 02 76 87 bb 24 d8 4b bd df 98 91 3c 16 2d 98 bc
       -0.0041339407 -0.049766675 0.01777309 -0.018576186
000160 9a 8f c2 bc 24 d3 57 3c ca 85 5d 3d 7e f9 ab 3c
       -0.023750115 0.013172898 0.05408267 0.02099299
000170 23 ea 12 3d af 2c 9b 3c 3a 6a 32 bd 6b 97 02 bd
       0.03586782 0.018942205 -0.043558337 -0.031882685
000180 56 03 ab bc 70 69 c7 bb a2 0e 53 bd 3d 7c d7 3c
       -0.020875614 -0.006085567 -0.051527627 0.026304359
000190 7b a6 24 bd 46 d2 04 3d 90 98 d3 3b 58 2f 1c bd
       -0.04019783 0.032427095 0.006457396 -0.038131088
0001a0 03 6a 80 3d 3d 21 4b bd 56 f0 a6 bc ba 4e 5e 3d
       0.0627022 -0.049592245 -0.020378273 0.0542743
0001b0 68 af 87 bc 79 9f 15 bd e3 76 7b bd c8 fc aa 3b
       -0.016563132 -0.036529038 -0.061392676 0.005218122
0001c0 da 99 7c bd 35 98 7c bd 0e 5f 40 3d 0d 6b 06 3d
       -0.06167016 -0.061668593 0.04696565 0.032816935
0001d0 a7 fa 84 3d 55 13 c2 3b 87 da b9 bc 2d a1 76 3d
       0.06493121 0.0059227147 -0.02268721 0.060212303
0001e0 75 73 51 bb fc d5 02 3d b8 f4 82 bd 9a 32 11 3c
       -0.0031959687 0.031942353 -0.06394333 0.008862162
0001f0 df 58 24 3d aa cd 2f 3d 85 72 3c bd 77 bd eb 3c
       0.040123817 0.042920746 -0.04600765 0.028776867
000200 5f 96 3e 3d e6 e6 09 bd 0e 5b c0 bc 00 e8 34 bd
       0.046530124 -0.033667468 -0.023480918 -0.044166565
000210 03 e0 2a 3d e1 9a 2d 3b 64 ce 86 bd 0b 3b c5 3b
       0.04171754 0.002649002 -0.06582335 0.0060190014
000220 0f b3 2a bc 7b 23 0e bc ba 54 70 3d 97 9d 0a 3d
       -0.010418667 -0.008675451 0.05867455 0.033841696
000230 12 5a 1b bd df 41 1b bc 55 ef 42 3d 66 a9 c0 3a
       -0.037927695 -0.009476154 0.047591526 0.0014698922
000240 26 2a ba 3c 74 47 1d 3d 9e 53 58 bb 68 48 ea 3b
       0.022725176 0.03839822 -0.0033008824 0.007149745
000250 62 bd 4b bd 6d 74 85 3d 4f 06 2f 3d db 0f 8f bd
       -0.049741156 0.06516347 0.042730626 -0.06985446
000260 6e ad 17 3d a4 d2 35 3d 20 36 80 3c dc f2 e1 39
       0.03703063 0.044390336 0.015650809 0.0004309629
000270 a8 18 82 3c 15 7a b5 3b 91 a4 66 bd 80 ec 19 bc
       0.015880898 0.005538235 -0.056309287 -0.009394765
000280 8b 7e a1 3c f9 55 2f 3d 42 82 14 bd 06 6d 02 3c
       0.01971366 0.0428066 -0.036257036 0.0079605635
000290 f6 a2 0d bc c6 1c 0f bd 04 c6 84 bd 87 85 95 3d
       -0.00864481 -0.03493955 -0.06483081 0.07300859
0002a0 cc d3 82 bc 4e d5 4f 3d 2c d5 5c 3d 55 b2 2a bd
       -0.015970133 0.050740533 0.053914234 -0.041673977
0002b0 20 70 19 3c c7 9d 81 3d 09 b1 87 3d 16 12 de 3b
       0.009365112 0.06328922 0.06625564 0.0067770584
0002c0 92 09 83 3c 9b 82 2e bb f8 33 bf bc 73 09 50 3d
       0.015995774 -0.002662814 -0.02334021 0.05079026
0002d0 6c 61 87 bd f5 c5 5d 3c 1d f3 1e bc b7 6a 7f bc
       -0.066103786 0.013535966 -0.009701517 -0.015589408
0002e0 1b 95 89 3d 91 66 ce bc 0d 51 a9 3c 9b 51 41 bd
       0.06717893 -0.025195392 0.02066853 -0.047196966
0002f0 69 4a 04 bd 2c fe 96 bc e1 f8 68 3d 17 d2 25 bd
       -0.032297526 -0.018431745 0.056877974 -0.04048356
000300 6a 6e 60 bd 7f 36 74 bd ac 3d d8 bc 8e a9 7c 3d
       -0.0547928 -0.059622284 -0.026396595 0.061685137
000310 00 5c 15 bd 0e dc 81 bd 96 ff 2b bd 7c d1 5e 3d
       -0.03646469 -0.063408 -0.041991793 0.054399
000320 12 54 5f 3d f7 82 3c 3d 83 20 d3 3b 45 8e 63 bd
       0.054523535 0.046023335 0.0064430847 -0.0555556
000330 bc b6 08 3b 6b 1e 91 bb 82 af 52 bd a5 33 0b bd
       0.0020860871 -0.004428675 -0.05143691 -0.0339848
000340 93 50 9b 3c c8 de 25 bd cb 24 09 3d 6f ea d6 bc
       0.01895932 -0.040495664 0.033482354 -0.026234834
000350 b6 3d 76 bd b1 f3 8d bc 9f 0b ff bc 47 ce 0b bc
       -0.060117446 -0.017328115 -0.031133471 -0.008533067
000360 fc 64 ed bc 61 45 e4 3b be 63 ce 3c 9f 32 e8 39
       -0.028978817 0.0069662784 0.025194045 0.00044288204
000370 9b 04 06 3d 19 52 96 bc 77 2b 1e bd df fc 31 bd
       0.032719236 -0.018349694 -0.03861567 -0.043454047
000380 35 0f 29 3d 63 2c d2 bc 6e e6 fd bb 87 a3 99 bc
       0.04127427 -0.02565593 -0.0077484166 -0.018754734
000390 de ed 84 bd 14 81 4b bd 9b 66 b1 3a 67 45 8b bd
       -0.06490682 -0.049683645 0.0013534607 -0.06800347
0003a0 d2 ee 8d bc e7 bc 6a bd 66 51 8c bd f6 a5 88 3d
       -0.017325792 -0.057309058 -0.06851463 0.066722795
0003b0 04 46 ba bc be 51 53 3d 85 8e 75 bc b1 d4 04 3c
       -0.022738464 0.051591627 -0.014987593 0.00810735
0003c0 3f 1b 07 bd 83 e0 21 3d bb a5 6b bd 72 a8 ab bc
       -0.03298497 0.03952075 -0.0575311 -0.020954344
0003d0 ae 75 da 3c 18 d9 25 bd 33 b4 0e 3d fa f3 b0 bc
       0.026667442 -0.04049024 0.03483982 -0.021600712
0003e0 77 b3 0c bd 84 4c 80 3c 80 7e 69 3d e9 7a 8f bc
       -0.03435084 0.015661485 0.057005405 -0.017514663
0003f0 ec e7 41 3d 85 35 53 bd fb ee 2b 3d 05 d5 ab bb
       0.04734032 -0.051564712 0.041975956 -0.0052438998

9.bias f4 [2]
000000 e4 3d 34 3d ec 09 dd bc
       0.044004336 -0.02698227
